…
12_qe7ol'}' --sort_method 'SMR,SMR'

INFO - 09/18/23 21:23:30 - 0:00:00 - device is cuda
INFO - 09/18/23 21:23:30 - 0:00:00 - word2id: {'<s>': 0, '</s>': 1, '<pad>': 2, '0': 3, '1': 4, '2': 5, '3': 6, '4': 7, '5': 8, '6': 9, '7': 10, '8': 11, '9': 12}
INFO - 09/18/23 21:23:30 - 0:00:00 - Loading data from /public/home/pengwei2022/workspace/_matrix_deep/diagonal_based_sorting/dataset/MIS/200000_16_16_lwodh ...
INFO - 09/18/23 21:23:31 - 0:00:01 - Loaded 200000 data from the disk.
DEBUG - 09/18/23 21:23:31 - 0:00:01 - TransformerModel(
                                        (position_embeddings): Embedding(4096, 256)
                                        (embeddings): Embedding(13, 256, padding_idx=1)
                                        (layer_norm_emb): LayerNorm((256,), eps=1e-12, elementwise_affine=True)
                                        (attentions): ModuleList(
                                          (0): MultiHeadAttention(
                                            (q_lin): Linear(in_features=256, out_features=256, bias=True)
                                            (k_lin): Linear(in_features=256, out_features=256, bias=True)
                                            (v_lin): Linear(in_features=256, out_features=256, bias=True)
                                            (out_lin): Linear(in_features=256, out_features=256, bias=True)
                                          )
                                          (1): MultiHeadAttention(
                                            (q_lin): Linear(in_features=256, out_features=256, bias=True)
                                            (k_lin): Linear(in_features=256, out_features=256, bias=True)
                                            (v_lin): Linear(in_features=256, out_features=256, bias=True)
                                            (out_lin): Linear(in_features=256, out_features=256, bias=True)
                                          )
                                          (2): MultiHeadAttention(
                                            (q_lin): Linear(in_features=256, out_features=256, bias=True)
                                            (k_lin): Linear(in_features=256, out_features=256, bias=True)
                                            (v_lin): Linear(in_features=256, out_features=256, bias=True)
                                            (out_lin): Linear(in_features=256, out_features=256, bias=True)
                                          )
                                          (3): MultiHeadAttention(
                                            (q_lin): Linear(in_features=256, out_features=256, bias=True)
                                            (k_lin): Linear(in_features=256, out_features=256, bias=True)
                                            (v_lin): Linear(in_features=256, out_features=256, bias=True)
                                            (out_lin): Linear(in_features=256, out_features=256, bias=True)
                                          )
                                          (4): MultiHeadAttention(
                                            (q_lin): Linear(in_features=256, out_features=256, bias=True)
                                            (k_lin): Linear(in_features=256, out_features=256, bias=True)
                                            (v_lin): Linear(in_features=256, out_features=256, bias=True)
                                            (out_lin): Linear(in_features=256, out_features=256, bias=True)
                                          )
                                          (5): MultiHeadAttention(
                                            (q_lin): Linear(in_features=256, out_features=256, bias=True)
                                            (k_lin): Linear(in_features=256, out_features=256, bias=True)
                                            (v_lin): Linear(in_features=256, out_features=256, bias=True)
                                            (out_lin): Linear(in_features=256, out_features=256, bias=True)
                                          )
                                        )
                                        (layer_norm1): ModuleList(
                                          (0): LayerNorm((256,), eps=1e-12, elementwise_affine=True)
                                          (1): LayerNorm((256,), eps=1e-12, elementwise_affine=True)
                                          (2): LayerNorm((256,), eps=1e-12, elementwise_affine=True)
                                          (3): LayerNorm((256,), eps=1e-12, elementwise_affine=True)
                                          (4): LayerNorm((256,), eps=1e-12, elementwise_affine=True)
                                          (5): LayerNorm((256,), eps=1e-12, elementwise_affine=True)
                                        )
                                        (ffns): ModuleList(
                                          (0): TransformerFFN(
                                            (lin1): Linear(in_features=256, out_features=1024, bias=True)
                                            (lin2): Linear(in_features=1024, out_features=256, bias=True)
                                          )
                                          (1): TransformerFFN(
                                            (lin1): Linear(in_features=256, out_features=1024, bias=True)
                                            (lin2): Linear(in_features=1024, out_features=256, bias=True)
                                          )
                                          (2): TransformerFFN(
                                            (lin1): Linear(in_features=256, out_features=1024, bias=True)
                                            (lin2): Linear(in_features=1024, out_features=256, bias=True)
                                          )
                                          (3): TransformerFFN(
                                            (lin1): Linear(in_features=256, out_features=1024, bias=True)
                                            (lin2): Linear(in_features=1024, out_features=256, bias=True)
                                          )
                                          (4): TransformerFFN(
                                            (lin1): Linear(in_features=256, out_features=1024, bias=True)
                                            (lin2): Linear(in_features=1024, out_features=256, bias=True)
                                          )
                                          (5): TransformerFFN(
                                            (lin1): Linear(in_features=256, out_features=1024, bias=True)
                                            (lin2): Linear(in_features=1024, out_features=256, bias=True)
                                          )
                                        )
                                        (layer_norm2): ModuleList(
                                          (0): LayerNorm((256,), eps=1e-12, elementwise_affine=True)
                                          (1): LayerNorm((256,), eps=1e-12, elementwise_affine=True)
                                          (2): LayerNorm((256,), eps=1e-12, elementwise_affine=True)
                                          (3): LayerNorm((256,), eps=1e-12, elementwise_affine=True)
                                          (4): LayerNorm((256,), eps=1e-12, elementwise_affine=True)
                                          (5): LayerNorm((256,), eps=1e-12, elementwise_affine=True)
                                        )
                                      ): TransformerModel(
                                        (position_embeddings): Embedding(4096, 256)
                                        (embeddings): Embedding(13, 256, padding_idx=1)
                                        (layer_norm_emb): LayerNorm((256,), eps=1e-12, elementwise_affine=True)
                                        (attentions): ModuleList(
                                          (0): MultiHeadAttention(
                                            (q_lin): Linear(in_features=256, out_features=256, bias=True)
                                            (k_lin): Linear(in_features=256, out_features=256, bias=True)
                                            (v_lin): Linear(in_features=256, out_features=256, bias=True)
                                            (out_lin): Linear(in_features=256, out_features=256, bias=True)
                                          )
                                          (1): MultiHeadAttention(
                                            (q_lin): Linear(in_features=256, out_features=256, bias=True)
                                            (k_lin): Linear(in_features=256, out_features=256, bias=True)
                                            (v_lin): Linear(in_features=256, out_features=256, bias=True)
                                            (out_lin): Linear(in_features=256, out_features=256, bias=True)
                                          )
                                          (2): MultiHeadAttention(
                                            (q_lin): Linear(in_features=256, out_features=256, bias=True)
                                            (k_lin): Linear(in_features=256, out_features=256, bias=True)
                                            (v_lin): Linear(in_features=256, out_features=256, bias=True)
                                            (out_lin): Linear(in_features=256, out_features=256, bias=True)
                                          )
                                          (3): MultiHeadAttention(
                                            (q_lin): Linear(in_features=256, out_features=256, bias=True)
                                            (k_lin): Linear(in_features=256, out_features=256, bias=True)
                                            (v_lin): Linear(in_features=256, out_features=256, bias=True)
                                            (out_lin): Linear(in_features=256, out_features=256, bias=True)
                                          )
                                          (4): MultiHeadAttention(
                                            (q_lin): Linear(in_features=256, out_features=256, bias=True)
                                            (k_lin): Linear(in_features=256, out_features=256, bias=True)
                                            (v_lin): Linear(in_features=256, out_features=256, bias=True)
                                            (out_lin): Linear(in_features=256, out_features=256, bias=True)
                                          )
                                          (5): MultiHeadAttention(
                                            (q_lin): Linear(in_features=256, out_features=256, bias=True)
                                            (k_lin): Linear(in_features=256, out_features=256, bias=True)
                                            (v_lin): Linear(in_features=256, out_features=256, bias=True)
                                            (out_lin): Linear(in_features=256, out_features=256, bias=True)
                                          )
                                        )
                                        (layer_norm1): ModuleList(
                                          (0): LayerNorm((256,), eps=1e-12, elementwise_affine=True)
                                          (1): LayerNorm((256,), eps=1e-12, elementwise_affine=True)
                                          (2): LayerNorm((256,), eps=1e-12, elementwise_affine=True)
                                          (3): LayerNorm((256,), eps=1e-12, elementwise_affine=True)
                                          (4): LayerNorm((256,), eps=1e-12, elementwise_affine=True)
                                          (5): LayerNorm((256,), eps=1e-12, elementwise_affine=True)
                                        )
                                        (ffns): ModuleList(
                                          (0): TransformerFFN(
                                            (lin1): Linear(in_features=256, out_features=1024, bias=True)
                                            (lin2): Linear(in_features=1024, out_features=256, bias=True)
                                          )
                                          (1): TransformerFFN(
                                            (lin1): Linear(in_features=256, out_features=1024, bias=True)
                                            (lin2): Linear(in_features=1024, out_features=256, bias=True)
                                          )
                                          (2): TransformerFFN(
                                            (lin1): Linear(in_features=256, out_features=1024, bias=True)
                                            (lin2): Linear(in_features=1024, out_features=256, bias=True)
                                          )
                                          (3): TransformerFFN(
                                            (lin1): Linear(in_features=256, out_features=1024, bias=True)
                                            (lin2): Linear(in_features=1024, out_features=256, bias=True)
                                          )
                                          (4): TransformerFFN(
                                            (lin1): Linear(in_features=256, out_features=1024, bias=True)
                                            (lin2): Linear(in_features=1024, out_features=256, bias=True)
                                          )
                                          (5): TransformerFFN(
                                            (lin1): Linear(in_features=256, out_features=1024, bias=True)
                                            (lin2): Linear(in_features=1024, out_features=256, bias=True)
                                          )
                                        )
                                        (layer_norm2): ModuleList(
                                          (0): LayerNorm((256,), eps=1e-12, elementwise_affine=True)
                                          (1): LayerNorm((256,), eps=1e-12, elementwise_affine=True)
                                          (2): LayerNorm((256,), eps=1e-12, elementwise_affine=True)
                                          (3): LayerNorm((256,), eps=1e-12, elementwise_affine=True)
                                          (4): LayerNorm((256,), eps=1e-12, elementwise_affine=True)
                                          (5): LayerNorm((256,), eps=1e-12, elementwise_affine=True)
                                        )
                                      )
DEBUG - 09/18/23 21:23:31 - 0:00:01 - TransformerModel(
                                        (position_embeddings): Embedding(4096, 256)
                                        (embeddings): Embedding(13, 256, padding_idx=1)
                                        (layer_norm_emb): LayerNorm((256,), eps=1e-12, elementwise_affine=True)
                                        (attentions): ModuleList(
                                          (0): MultiHeadAttention(
                                            (q_lin): Linear(in_features=256, out_features=256, bias=True)
                                            (k_lin): Linear(in_features=256, out_features=256, bias=True)
                                            (v_lin): Linear(in_features=256, out_features=256, bias=True)
                                            (out_lin): Linear(in_features=256, out_features=256, bias=True)
                                          )
                                          (1): MultiHeadAttention(
                                            (q_lin): Linear(in_features=256, out_features=256, bias=True)
                                            (k_lin): Linear(in_features=256, out_features=256, bias=True)
                                            (v_lin): Linear(in_features=256, out_features=256, bias=True)
                                            (out_lin): Linear(in_features=256, out_features=256, bias=True)
                                          )
                                          (2): MultiHeadAttention(
                                            (q_lin): Linear(in_features=256, out_features=256, bias=True)
                                            (k_lin): Linear(in_features=256, out_features=256, bias=True)
                                            (v_lin): Linear(in_features=256, out_features=256, bias=True)
                                            (out_lin): Linear(in_features=256, out_features=256, bias=True)
                                          )
                                          (3): MultiHeadAttention(
                                            (q_lin): Linear(in_features=256, out_features=256, bias=True)
                                            (k_lin): Linear(in_features=256, out_features=256, bias=True)
                                            (v_lin): Linear(in_features=256, out_features=256, bias=True)
                                            (out_lin): Linear(in_features=256, out_features=256, bias=True)
                                          )
                                          (4): MultiHeadAttention(
                                            (q_lin): Linear(in_features=256, out_features=256, bias=True)
                                            (k_lin): Linear(in_features=256, out_features=256, bias=True)
                                            (v_lin): Linear(in_features=256, out_features=256, bias=True)
                                            (out_lin): Linear(in_features=256, out_features=256, bias=True)
                                          )
                                          (5): MultiHeadAttention(
                                            (q_lin): Linear(in_features=256, out_features=256, bias=True)
                                            (k_lin): Linear(in_features=256, out_features=256, bias=True)
                                            (v_lin): Linear(in_features=256, out_features=256, bias=True)
                                            (out_lin): Linear(in_features=256, out_features=256, bias=True)
                                          )
                                        )
                                        (layer_norm1): ModuleList(
                                          (0): LayerNorm((256,), eps=1e-12, elementwise_affine=True)
                                          (1): LayerNorm((256,), eps=1e-12, elementwise_affine=True)
                                          (2): LayerNorm((256,), eps=1e-12, elementwise_affine=True)
                                          (3): LayerNorm((256,), eps=1e-12, elementwise_affine=True)
                                          (4): LayerNorm((256,), eps=1e-12, elementwise_affine=True)
                                          (5): LayerNorm((256,), eps=1e-12, elementwise_affine=True)
                                        )
                                        (ffns): ModuleList(
                                          (0): TransformerFFN(
                                            (lin1): Linear(in_features=256, out_features=1024, bias=True)
                                            (lin2): Linear(in_features=1024, out_features=256, bias=True)
                                          )
                                          (1): TransformerFFN(
                                            (lin1): Linear(in_features=256, out_features=1024, bias=True)
                                            (lin2): Linear(in_features=1024, out_features=256, bias=True)
                                          )
                                          (2): TransformerFFN(
                                            (lin1): Linear(in_features=256, out_features=1024, bias=True)
                                            (lin2): Linear(in_features=1024, out_features=256, bias=True)
                                          )
                                          (3): TransformerFFN(
                                            (lin1): Linear(in_features=256, out_features=1024, bias=True)
                                            (lin2): Linear(in_features=1024, out_features=256, bias=True)
                                          )
                                          (4): TransformerFFN(
                                            (lin1): Linear(in_features=256, out_features=1024, bias=True)
                                            (lin2): Linear(in_features=1024, out_features=256, bias=True)
                                          )
                                          (5): TransformerFFN(
                                            (lin1): Linear(in_features=256, out_features=1024, bias=True)
                                            (lin2): Linear(in_features=1024, out_features=256, bias=True)
                                          )
                                        )
                                        (layer_norm2): ModuleList(
                                          (0): LayerNorm((256,), eps=1e-12, elementwise_affine=True)
                                          (1): LayerNorm((256,), eps=1e-12, elementwise_affine=True)
                                          (2): LayerNorm((256,), eps=1e-12, elementwise_affine=True)
                                          (3): LayerNorm((256,), eps=1e-12, elementwise_affine=True)
                                          (4): LayerNorm((256,), eps=1e-12, elementwise_affine=True)
                                          (5): LayerNorm((256,), eps=1e-12, elementwise_affine=True)
                                        )
                                        (layer_norm15): ModuleList(
                                          (0): LayerNorm((256,), eps=1e-12, elementwise_affine=True)
                                          (1): LayerNorm((256,), eps=1e-12, elementwise_affine=True)
                                          (2): LayerNorm((256,), eps=1e-12, elementwise_affine=True)
                                          (3): LayerNorm((256,), eps=1e-12, elementwise_affine=True)
                                          (4): LayerNorm((256,), eps=1e-12, elementwise_affine=True)
                                          (5): LayerNorm((256,), eps=1e-12, elementwise_affine=True)
                                        )
                                        (encoder_attn): ModuleList(
                                          (0): MultiHeadAttention(
                                            (q_lin): Linear(in_features=256, out_features=256, bias=True)
                                            (k_lin): Linear(in_features=256, out_features=256, bias=True)
                                            (v_lin): Linear(in_features=256, out_features=256, bias=True)
                                            (out_lin): Linear(in_features=256, out_features=256, bias=True)
                                          )
                                          (1): MultiHeadAttention(
                                            (q_lin): Linear(in_features=256, out_features=256, bias=True)
                                            (k_lin): Linear(in_features=256, out_features=256, bias=True)
                                            (v_lin): Linear(in_features=256, out_features=256, bias=True)
                                            (out_lin): Linear(in_features=256, out_features=256, bias=True)
                                          )
                                          (2): MultiHeadAttention(
                                            (q_lin): Linear(in_features=256, out_features=256, bias=True)
                                            (k_lin): Linear(in_features=256, out_features=256, bias=True)
                                            (v_lin): Linear(in_features=256, out_features=256, bias=True)
                                            (out_lin): Linear(in_features=256, out_features=256, bias=True)
                                          )
                                          (3): MultiHeadAttention(
                                            (q_lin): Linear(in_features=256, out_features=256, bias=True)
                                            (k_lin): Linear(in_features=256, out_features=256, bias=True)
                                            (v_lin): Linear(in_features=256, out_features=256, bias=True)
                                            (out_lin): Linear(in_features=256, out_features=256, bias=True)
                                          )
                                          (4): MultiHeadAttention(
                                            (q_lin): Linear(in_features=256, out_features=256, bias=True)
                                            (k_lin): Linear(in_features=256, out_features=256, bias=True)
                                            (v_lin): Linear(in_features=256, out_features=256, bias=True)
                                            (out_lin): Linear(in_features=256, out_features=256, bias=True)
                                          )
                                          (5): MultiHeadAttention(
                                            (q_lin): Linear(in_features=256, out_features=256, bias=True)
                                            (k_lin): Linear(in_features=256, out_features=256, bias=True)
                                            (v_lin): Linear(in_features=256, out_features=256, bias=True)
                                            (out_lin): Linear(in_features=256, out_features=256, bias=True)
                                          )
                                        )
                                        (proj): Linear(in_features=256, out_features=13, bias=True)
                                      ): TransformerModel(
                                        (position_embeddings): Embedding(4096, 256)
                                        (embeddings): Embedding(13, 256, padding_idx=1)
                                        (layer_norm_emb): LayerNorm((256,), eps=1e-12, elementwise_affine=True)
                                        (attentions): ModuleList(
                                          (0): MultiHeadAttention(
                                            (q_lin): Linear(in_features=256, out_features=256, bias=True)
                                            (k_lin): Linear(in_features=256, out_features=256, bias=True)
                                            (v_lin): Linear(in_features=256, out_features=256, bias=True)
                                            (out_lin): Linear(in_features=256, out_features=256, bias=True)
                                          )
                                          (1): MultiHeadAttention(
                                            (q_lin): Linear(in_features=256, out_features=256, bias=True)
                                            (k_lin): Linear(in_features=256, out_features=256, bias=True)
                                            (v_lin): Linear(in_features=256, out_features=256, bias=True)
                                            (out_lin): Linear(in_features=256, out_features=256, bias=True)
                                          )
                                          (2): MultiHeadAttention(
                                            (q_lin): Linear(in_features=256, out_features=256, bias=True)
                                            (k_lin): Linear(in_features=256, out_features=256, bias=True)
                                            (v_lin): Linear(in_features=256, out_features=256, bias=True)
                                            (out_lin): Linear(in_features=256, out_features=256, bias=True)
                                          )
                                          (3): MultiHeadAttention(
                                            (q_lin): Linear(in_features=256, out_features=256, bias=True)
                                            (k_lin): Linear(in_features=256, out_features=256, bias=True)
                                            (v_lin): Linear(in_features=256, out_features=256, bias=True)
                                            (out_lin): Linear(in_features=256, out_features=256, bias=True)
                                          )
                                          (4): MultiHeadAttention(
                                            (q_lin): Linear(in_features=256, out_features=256, bias=True)
                                            (k_lin): Linear(in_features=256, out_features=256, bias=True)
                                            (v_lin): Linear(in_features=256, out_features=256, bias=True)
                                            (out_lin): Linear(in_features=256, out_features=256, bias=True)
                                          )
                                          (5): MultiHeadAttention(
                                            (q_lin): Linear(in_features=256, out_features=256, bias=True)
                                            (k_lin): Linear(in_features=256, out_features=256, bias=True)
                                            (v_lin): Linear(in_features=256, out_features=256, bias=True)
                                            (out_lin): Linear(in_features=256, out_features=256, bias=True)
                                          )
                                        )
                                        (layer_norm1): ModuleList(
                                          (0): LayerNorm((256,), eps=1e-12, elementwise_affine=True)
                                          (1): LayerNorm((256,), eps=1e-12, elementwise_affine=True)
                                          (2): LayerNorm((256,), eps=1e-12, elementwise_affine=True)
                                          (3): LayerNorm((256,), eps=1e-12, elementwise_affine=True)
                                          (4): LayerNorm((256,), eps=1e-12, elementwise_affine=True)
                                          (5): LayerNorm((256,), eps=1e-12, elementwise_affine=True)
                                        )
                                        (ffns): ModuleList(
                                          (0): TransformerFFN(
                                            (lin1): Linear(in_features=256, out_features=1024, bias=True)
                                            (lin2): Linear(in_features=1024, out_features=256, bias=True)
                                          )
                                          (1): TransformerFFN(
                                            (lin1): Linear(in_features=256, out_features=1024, bias=True)
                                            (lin2): Linear(in_features=1024, out_features=256, bias=True)
                                          )
                                          (2): TransformerFFN(
                                            (lin1): Linear(in_features=256, out_features=1024, bias=True)
                                            (lin2): Linear(in_features=1024, out_features=256, bias=True)
                                          )
                                          (3): TransformerFFN(
                                            (lin1): Linear(in_features=256, out_features=1024, bias=True)
                                            (lin2): Linear(in_features=1024, out_features=256, bias=True)
                                          )
                                          (4): TransformerFFN(
                                            (lin1): Linear(in_features=256, out_features=1024, bias=True)
                                            (lin2): Linear(in_features=1024, out_features=256, bias=True)
                                          )
                                          (5): TransformerFFN(
                                            (lin1): Linear(in_features=256, out_features=1024, bias=True)
                                            (lin2): Linear(in_features=1024, out_features=256, bias=True)
                                          )
                                        )
                                        (layer_norm2): ModuleList(
                                          (0): LayerNorm((256,), eps=1e-12, elementwise_affine=True)
                                          (1): LayerNorm((256,), eps=1e-12, elementwise_affine=True)
                                          (2): LayerNorm((256,), eps=1e-12, elementwise_affine=True)
                                          (3): LayerNorm((256,), eps=1e-12, elementwise_affine=True)
                                          (4): LayerNorm((256,), eps=1e-12, elementwise_affine=True)
                                          (5): LayerNorm((256,), eps=1e-12, elementwise_affine=True)
                                        )
                                        (layer_norm15): ModuleList(
                                          (0): LayerNorm((256,), eps=1e-12, elementwise_affine=True)
                                          (1): LayerNorm((256,), eps=1e-12, elementwise_affine=True)
                                          (2): LayerNorm((256,), eps=1e-12, elementwise_affine=True)
                                          (3): LayerNorm((256,), eps=1e-12, elementwise_affine=True)
                                          (4): LayerNorm((256,), eps=1e-12, elementwise_affine=True)
                                          (5): LayerNorm((256,), eps=1e-12, elementwise_affine=True)
                                        )
                                        (encoder_attn): ModuleList(
                                          (0): MultiHeadAttention(
                                            (q_lin): Linear(in_features=256, out_features=256, bias=True)
                                            (k_lin): Linear(in_features=256, out_features=256, bias=True)
                                            (v_lin): Linear(in_features=256, out_features=256, bias=True)
                                            (out_lin): Linear(in_features=256, out_features=256, bias=True)
                                          )
                                          (1): MultiHeadAttention(
                                            (q_lin): Linear(in_features=256, out_features=256, bias=True)
                                            (k_lin): Linear(in_features=256, out_features=256, bias=True)
                                            (v_lin): Linear(in_features=256, out_features=256, bias=True)
                                            (out_lin): Linear(in_features=256, out_features=256, bias=True)
                                          )
                                          (2): MultiHeadAttention(
                                            (q_lin): Linear(in_features=256, out_features=256, bias=True)
                                            (k_lin): Linear(in_features=256, out_features=256, bias=True)
                                            (v_lin): Linear(in_features=256, out_features=256, bias=True)
                                            (out_lin): Linear(in_features=256, out_features=256, bias=True)
                                          )
                                          (3): MultiHeadAttention(
                                            (q_lin): Linear(in_features=256, out_features=256, bias=True)
                                            (k_lin): Linear(in_features=256, out_features=256, bias=True)
                                            (v_lin): Linear(in_features=256, out_features=256, bias=True)
                                            (out_lin): Linear(in_features=256, out_features=256, bias=True)
                                          )
                                          (4): MultiHeadAttention(
                                            (q_lin): Linear(in_features=256, out_features=256, bias=True)
                                            (k_lin): Linear(in_features=256, out_features=256, bias=True)
                                            (v_lin): Linear(in_features=256, out_features=256, bias=True)
                                            (out_lin): Linear(in_features=256, out_features=256, bias=True)
                                          )
                                          (5): MultiHeadAttention(
                                            (q_lin): Linear(in_features=256, out_features=256, bias=True)
                                            (k_lin): Linear(in_features=256, out_features=256, bias=True)
                                            (v_lin): Linear(in_features=256, out_features=256, bias=True)
                                            (out_lin): Linear(in_features=256, out_features=256, bias=True)
                                          )
                                        )
                                        (proj): Linear(in_features=256, out_features=13, bias=True)
                                      )
INFO - 09/18/23 21:23:31 - 0:00:01 - Number of parameters (encoder): 5790976
INFO - 09/18/23 21:23:31 - 0:00:01 - Number of parameters (decoder): 7373069
INFO - 09/18/23 21:23:34 - 0:00:05 - Found 261 parameters in model.
INFO - 09/18/23 21:23:34 - 0:00:05 - 
                                     ============ Starting epoch 0 ... ============
…
